GradWATCH-main/model/params/model.pkl (torch, 308380 bytes, 10 tensors)

weight1 f4 [256, 64]
0.06451994 0.0966823 0.20746666 -0.20332758 -0.11885202 -0.12010842 0.18168336 -0.015502548
0.019981466 0.20674407 0.0047560325 -0.10055402 0.058296483 -0.024079157 0.05114453 -0.09258156
0.08776315 0.07484774 -0.031842604 0.022396067 0.11754078 -0.18643764 9.604441e-05 -0.03269554
-0.12894464 0.15606886 0.03591447 -0.09182161 0.018166145 0.087231755 0.060813025 0.006189623
-0.2587187 0.016131176 0.08244929 -0.18122451 -0.03021718 -0.061423596 -0.104447916 0.032210093
-0.07013016 0.0035669007 0.11786784 0.028898679 0.14684829 0.040173482 0.04049565 0.053089287
-0.28406498 0.11322126 -0.10130677 -0.1577183 0.17774461 -0.041669652 -0.14217782 0.058704104
-0.20117897 0.045018315 0.13011125 0.027663471 0.038730983 -0.14003703 -0.080203585 0.066132136
0.02232146 0.0018339751 -0.0680133 -0.0007354718 -0.18126123 -0.040239785 0.005521831 0.01506045
0.040939353 0.075262785 0.11850344 -0.047991514 0.06289508 -0.064068995 0.0863199 -0.039485607
0.0201199 -0.045803253 -0.114247486 -0.06361564 -0.039874647 -0.08766683 0.08975442 -0.04844011
-0.09431359 -0.03520396 -0.18330243 0.009975137 0.038464542 -0.09064637 0.0110194655 -0.07886567
-0.1938004 0.050037976 0.08108022 -0.002242239 0.062751934 -0.15055695 0.078718506 0.10068233
0.043975256 0.10321364 -0.039768174 0.0750396 -0.08387508 0.108757414 0.05600511 0.023286127
-0.0749412 -0.118236326 0.06962999 0.015945759 0.022370892 0.04927309 -0.1591165 -0.06314977
-0.05251253 0.069955684 0.0050914073 -0.018479126 0.13097927 -0.04348994 0.0019550107 -0.116668604
0.048078537 0.07190494 0.016431278 -0.058320258 -0.09124948 -0.022118352 -0.013760914 0.09339443
0.03997787 0.1504035 0.024582341 -0.014352523 -0.18781468 -0.00033407257 -0.08651563 -0.0498104
0.13317631 -0.011627765 -0.037583947 -0.032280084 0.16077407 -0.04826871 -0.077700615 -0.05236655
-0.020939386 -0.13668844 0.09976182 0.046331096 -0.0797407 -0.0366841 -0.03085367 0.056723136
-0.08914865 -0.035685834 0.06288662 -0.01563458 -0.14924881 0.015001481 -0.003554149 0.226067
0.022192392 -0.014474496 -0.0032195998 0.07423506 -0.029036742 0.0060589807 0.019026408 -0.033518888
-0.12289652 0.08073458 -0.09718933 -0.12769483 0.16990189 0.033833362 0.06628175 -0.07435822
0.095186114 0.0017033545 0.014694553 0.007735129 0.074425414 -0.0061643436 -0.004899563 -0.10769895
0.0049383934 0.120889895 0.22100835 -0.1606407 0.00067593454 -0.15600857 0.095384575 0.06938862
-0.13957518 0.14412601 0.036205757 0.11344578 0.032837782 0.10903081 -0.01243474 -0.057972062
-0.055513363 -0.0042515616 0.06783034 0.062401716 -0.08500778 -0.047713865 0.12748876 -0.13372846
-0.035840813 0.2720001 -0.03144872 0.033611927 0.038915377 -0.06941457 -0.050079137 0.102195114
-0.2295846 -0.099804 -0.030472757 -0.20913115 -0.1794801 -0.07744015 -0.06836187 0.021134166
0.13210039 -0.082709506 0.088996075 -0.0074601336 0.20270942 0.15538117 0.24067402 0.08761306
-0.01891886 0.24285075 -0.06661584 -0.20582427 -0.016709024 0.19154651 0.0029276973 -0.0035389513
-0.12813431 -0.20255998 -0.03446377 -0.085612 -0.055667546 -0.2216109 -0.041136585 0.09551683
00000000: 0823 843d 5f01 c63d 2472 543e 1b35 50be
00000010: b068 f3bd 67fb f5bd 340b 3a3e 66fe 7dbc
00000020: 2cb0 a33c b8b4 533e 7ed8 9b3b 44ef cdbd
00000030: 4bc8 6e3d a741 c5bc ed7c 513d 679b bdbd
00000040: 2bbd b33d c649 993d 646d 02bd f577 b73c
00000050: 38b9 f03d 82e9 3ebe 736b c938 c2eb 05bd
00000060: 100a 04be 84d0 1f3e 0d1b 133d f80c bcbd
00000070: 2bd1 943c 90a6 b23d 1417 793d 52d2 ca3b
00000080: c776 84be 8725 843c 2cdb a83d eb92 39be
00000090: 058a f7bc 4f97 7bbd cae8 d5bd bbee 033d
000000a0: 67a0 8fbd aac2 693b b264 f13d ecbc ec3c
000000b0: 665f 163e f38c 243d c4de 253d 2774 593d
000000c0: f770 91be 8ce0 e73d ed79 cfbd e880 21be
000000d0: af02 363e ccad 2abd 1097 11be b773 703d
000000e0: dc01 4ebe 2065 383d e23b 053e 819e e23c
000000f0: 61a4 1e3d de65 0fbe c741 a4bd 4970 873d
00000100: 7fdb b63c fe61 f03a 8f4a 8bbd adcc 40ba
00000110: 8b9c 39be 79d2 24bd 7af0 b43b 1bc0 763c
00000120: 06b0 273d 6023 9a3d eeb1 f23d c092 44bd
00000130: 23cf 803d 9b36 83bd 7dc8 b03d a9bb 21bd
00000140: 7dd2 a43c 319c 3bbd 96fa e9bd eb48 82bd
00000150: 9953 23bd ab8a b3bd 2ad1 b73d 2369 46bd
00000160: 7c27 c1bd 0732 10bd a2b3 3bbe c26e 233c
00000170: ff8c 1d3d cea4 b9bd fd8a 343c 5384 a1bd
00000180: 9d73 46be 9ff4 4c3d 630d a63d 87f2 12bb
00000190: 1684 803d 9a2b 1abe 2b37 a13d 8a32 ce3d
000001a0: 661f 343d ac61 d33d f4e3 22bd 5dae 993d
000001b0: b3c6 abbd 35bc de3d 9d65 653d 8cc2 be3c
000001c0: c67a 99bd e325 f2bd 2b9a 8e3d aea0 823c
000001d0: 2943 b73c 94d2 493d 70ef 22be ab54 81bd
000001e0: 6117 57bd ed44 8f3d d2d5 a63b 8961 97bc
000001f0: 6e1f 063e 8222 32bd a31f 003b f3ef eebd
00000200: 00ee 443d e642 933d e39a 863c 39e1 6ebd
00000210: 02e1 babd 8c31 b5bc 7575 61bc 9445 bf3d
00000220: d6bf 233d 6003 1a3e e860 c93c d826 6bbc
00000230: 7e52 40be 7626 afb9 1b2f b1bd fd05 4cbd
00000240: 5f5f 083e 6282 3ebc a0f1 19bd 1f38 04bd
00000250: f5a1 243e 69b5 45bd 8021 9fbd 4f7e 56bd
00000260: 1389 abbc 0ef8 0bbe ed4f cc3d adc5 3d3d
00000270: 184f a3bd 1142 16bd d6c0 fcbc 8556 683d
00000280: 9193 b6bd 4f2b 12bd b3ca 803d 1714 80bc
00000290: aed4 18be c6c8 753c baec 68bb 1c7e 673e
000002a0: d2cc b53c 7026 6dbc ecff 52bb 8d08 983d
000002b0: 76de edbc 6a8a c63b 45dd 9b3c 1a4b 09bd
000002c0: 2cb1 fbbd 2c58 a53d 330b c7bd 6fc2 02be
000002d0: c3fa 2d3e da94 0a3d babe 873d 1f49 98bd
000002e0: f0f0 c23d 1843 df3a 6cc1 703c f776 fd3b
000002f0: 5a6c 983d 43fe c9bb 838c a0bb 4491 dcbd
00000300: 3fd2 a13b 1f95 f73d 0350 623e ff7e 24be
00000310: 3331 313a b6c0 1fbe fd58 c33d 9f1b 8e3d
00000320: ccec 0ebe c595 133e 7d4c 143d 4356 e83d
00000330: e980 063d 8c4b df3d 14bb 4bbc 1d74 6dbd
00000340: fb61 63bd af50 8bbb a2ea 8a3d f198 7f3d
00000350: 8f18 aebd 9d6f 43bd 6a8c 023e 1df0 08be
00000360: d1cd 12bd 9943 8b3e 5fd0 00bd a9ac 093d
00000370: bb65 1f3d 3a29 8ebd c81f 4dbd ac4b d13d
00000380: 3a18 6bbe 0a66 ccbd 01a2 f9bc 7a26 56be
00000390: a2c9 37be f198 9ebd 4f01 8cbd 8f21 ad3c
000003a0: 5345 073e 9a63 a9bd 9343 b63d 2374 f4bb
000003b0: 0f93 4f3e 3e1c 1f3e 4073 763e 7a6e b33d
000003c0: bafb 9abc dead 783e e36d 88bd 99c3 52be
000003d0: 5de1 88bc c524 443e 9cde 3f3b c0ed 67bb
000003e0: a435 03be e26b 4fbe e229 0dbd 5855 afbd
000003f0: a703 64bd f8ed 62be d67e 28bd 549e c33d

weight2 f4 [1, 256]
-0.024929881 -0.0381766 -0.015340857 0.1175643 -0.06488246 -0.031444747 -0.13793284 -0.041635223
-0.020749329 -0.024773747 -0.11368868 0.12821932 -0.07971796 0.10457661 -0.021922903 -0.330103
-0.025537267 -0.077967934 0.10878941 0.010952578 0.07012957 0.061085436 -0.0037099705 0.15294085
-0.09697351 -0.0332017 0.2508955 -0.037293367 -0.04367934 -0.06556267 0.01079791 -0.27970126
0.12639551 -0.063960604 0.10689533 -0.1615167 -0.080676705 -0.020289728 0.07795895 -0.09319907
-0.011758852 -0.43001276 0.040673535 0.10546081 -0.19174996 -0.04635457 -0.15685487 -0.13386756
0.15198909 -0.35965633 -0.18433207 -0.042092595 -0.04892273 -0.006255535 -0.19376998 -0.01984166
0.11926054 -0.07220924 -0.13111436 -0.16796048 -0.27960643 0.033283524 0.023091163 -0.009011327
-0.13565052 -0.14607055 -0.38584417 0.04072384 -0.49169523 0.09743549 0.20633647 -0.04364589
-0.06392623 -0.07769988 -0.018380836 -0.030079562 0.0982274 0.0036640242 0.0467324 -0.0652519
-0.10126434 -0.06790064 -0.22770672 -0.078000896 0.042194236 -0.046620578 0.05606011 0.06523567
0.053865727 -0.071504116 0.11877819 -0.5126264 -0.0746119 -0.047284115 -0.063524 -0.20231439
-0.04684168 -0.42472994 0.0562847 0.03631546 0.027684467 0.13130394 -0.16286533 -0.059153944
-0.18073802 0.24171856 -0.08589654 -0.05795447 -0.38238174 -0.033407424 -0.2107718 -0.044623844
0.0003926059 -0.057051256 -0.38844147 -0.057763558 -0.035466947 -0.037633434 -0.0309343 0.096012674
0.00857748 -0.3747506 0.109652445 0.07584525 0.020393183 -0.19500886 -0.06455114 -0.050341256
-0.041756574 -0.03833892 -0.021122023 -0.12579624 0.05777374 0.030452063 0.013284057 -0.083113596
0.16710155 0.23712263 -0.031088201 -0.07496105 -0.028777264 0.060453884 0.062311728 -0.026027894
-0.106391504 -0.012264874 -0.13674626 0.026982136 -0.24844395 -0.028744053 -0.030721068 -0.2701925
-0.039866492 0.016980872 -0.060767327 0.0599232 -0.040696286 -0.23652698 0.15590985 0.14843331
-0.4016317 -0.04624025 -0.06758423 -0.026525576 -0.103340514 -0.039211284 -0.26396534 0.0021569638
-0.030563027 -0.028860675 -0.18356165 -0.0697858 -0.19550556 -0.028071992 0.2043488 -0.04209128
-0.06653918 -0.073478065 0.10443358 -0.23416026 -0.07489842 -0.14438514 0.035308808 -0.12554908
0.0079270145 -0.27474767 -0.09930877 0.13254312 -0.030762786 -0.007871671 -0.33176547 -0.09735887
-0.042706236 -0.033315323 -0.0069993436 -0.03135983 -0.1847715 -0.24821413 0.0616995 -0.08348852
-0.0995776 -0.011696797 -0.013719047 -0.051412407 0.2553288 -0.04337236 -0.035913788 -0.01526525
-0.17526731 0.096647784 -0.030967075 0.045087107 -0.009723746 0.015764525 -0.025082441 0.013063385
-0.017682504 0.022004517 0.0021659133 -0.018877253 0.06784048 -0.14989895 -0.14988072 0.0061569307
0.09063882 -0.35020158 -0.10428172 0.14918233 -0.3218755 -0.5244782 -0.023932042 -0.0126583595
-0.13420933 -0.1524321 -0.1351906 0.07624133 0.0012209774 -0.21578087 0.100542985 -0.03202337
-0.38407618 -0.28510603 -0.14846599 0.025000686 0.10981805 -0.1122003 -0.035673555 -0.023963116
-0.041227307 0.009982662 -0.001999069 -0.06527802 0.07933718 0.11173479 -0.071479894 0.09533545
00000000: c039 ccbc 115f 1cbd 3858 7bbc 8dc5 f03d
00000010: 18e1 84bd 35cc 00bd 443e 0dbe b289 2abd
00000020: 7ffa a9bc 50f2 cabc 9cd5 e8bd ed4b 033e
00000030: 2b43 a3bd 432c d63d a997 b3bc 4303 a9be
00000040: 8833 d1bc a7ad 9fbd fbcc de3d 7172 333c
00000050: 18a0 8f3d b934 7a3d fa22 73bb 879c 1c3e
00000060: 0c9a c6bd 81fe 07bd 6075 803e eec0 18bd
00000070: 1ce9 32bd b945 86bd b8e9 303c 0135 8fbe
00000080: d36d 013e c7fd 82bd f0eb da3d a264 25be
00000090: d439 a5bd a536 a6bc f1a8 9f3d 27df bebd
000000a0: 33a8 40bc a22a dcbe 4b99 263d d6fb d73d
000000b0: 1a5a 44be 4ade 3dbd 909e 20be 9414 09be
000000c0: 07a3 1b3e e024 b8be 8cc1 3cbe 4969 2cbd
000000d0: 3363 48bd 3bfb ccbb a36b 46be fa8a a2bc
000000e0: df3e f43d 70e2 93bd d842 06be d5fd 2bbe
000000f0: 9328 8fbe 4e54 083d ae29 bd3c 3fa4 13bc
00000100: f8e7 0abe 8593 15be 5e8d c5be 0bce 263d
00000110: 7abf fbbe 428c c73d de49 533e 08c6 32bd
00000120: c1eb 82bd 1d21 9fbd 6893 96bc 6a69 f6bc
00000130: 722b c93d 2020 703b 796a 3f3d caa2 85bd
00000140: ae63 cfbd 7e0f 8bbd f32b 69be efbe 9fbd
00000150: ddd3 2c3d 38f5 3ebd 499f 653d 479a 853d
00000160: 4fa2 5c3d c070 92bd fb41 f33d 7c3b 03bf
00000170: 20ce 98bd fdac 41bd df18 82bd 812b 4fbe
00000180: 10dd 3fbd 3476 d9be c98a 663d 85bf 143d
00000190: 89ca e23c 8a74 063e 2bc6 26be 684b 72bd
000001a0: 6313 39be 1285 773e 86ea afbd ab61 6dbd
000001b0: 8ac7 c3be 39d6 08bd 90d4 57be 7ec7 36bd
000001c0: acd6 cd39 94ae 69bd cde1 c6be 7b99 6cbd
000001d0: ca45 11bd 8425 1abd ee69 fdbc 4ba2 c43d
000001e0: 8f88 0c3c 50df bfbe 7691 e03d c154 9b3d
000001f0: 9b0f a73c 67b0 47be 6333 84bd a232 4ebd
00000200: f108 2bbd 4509 1dbd 1808 adbc bbd0 00be
00000210: 28a4 6c3d 9b76 f93c 60a5 593c 7637 aabd
00000220: ab1c 2b3e 46d0 723e afac febc 2e85 99bd
00000230: 4cbe ebbc 7e9e 773d 953a 7f3d 7338 d5bc
00000240: cae3 d9bd 9cf2 48bc 3607 0cbe a409 dd3c
00000250: 1768 7ebe a678 ebbc c0aa fbbc ac56 8abe
00000260: 0c4b 23bd 781b 8b3c 29e7 78bd 0872 753d
00000270: 26b1 26bd 2134 72be d5a6 1f3e e7fe 173e
00000280: aca2 cdbe 6b66 3dbd 9a69 8abd 2a4c d9bc
00000290: 31a4 d3bd 039c 20bd 7726 87be d95b 0d3b
000002a0: 505f fabc 396d ecbc 96f7 3bbe dceb 8ebd
000002b0: 9c32 48be 3cf7 e5bc d040 513e e867 2cbd
000002c0: b245 88bd ab7b 96bd 46e1 d53d b5c7 6fbe
000002d0: 5864 99bd b3d9 13be f89f 103d f08f 00be
000002e0: 4fe0 013c baab 8cbe 6562 cbbd 62b9 073e
000002f0: 3d02 fcbc 2ef8 00bc 2add a9be 1664 c7bd
00000300: bcec 2ebd a675 08bd c05a e5bb 2a73 00bd
00000310: bd34 3dbe d82b 7ebe 9db8 7c3d 07fc aabd
00000320: 57ef cbbd eca3 3fbc dbc5 60bc d195 52bd
00000330: 75ba 823e 37a7 31bd 561a 13bd 191b 7abc
00000340: 4679 33be 46ef c53d aaae fdbc 42ad 383d
00000350: 5950 1fbc 9b24 813c b179 cdbc cf07 563c
00000360: e6da 90bc d142 b43c fff1 0d3b 78a4 9abc
00000370: f3ef 8a3d 1c7f 19be 557a 19be 14c0 c93b
00000380: d8a0 b93d 9f4d b3be a891 d5bd 41c3 183e
00000390: decc a4be 3444 06bf 210d c4bc 0265 4fbc
000003a0: 2c6e 09be 2917 1cbe 686f 0abe 6a24 9c3d
000003b0: 3409 a03a a9f5 5cbe 7be9 cd3d f02a 03bd
000003c0: a2a5 c4be 6bf9 91be 7807 18be 3dce cc3c
000003d0: 49e8 e03d 45c9 e5bd 6f1e 12bd 4c4e c4bc
000003e0: f7dd 28bd 528e 233c d002 03bb 7cb0 85bd
000003f0: 887b a23d 36d5 e43d 0d64 92bd 3b3f c33d

layer0.linear_skip_weight f4 [64, 400]
0.021994252 -0.008252331 0.02611977 -0.111402474 0.1076103 0.06332523 0.030730827 -0.15483925
-0.01211656 -0.06705006 0.032578897 -0.074623935 -0.055105556 -0.05515558 0.06498975 0.028609304
0.09480929 0.018609801 0.100449786 0.112865195 0.051389955 0.0032307706 -0.0077023986 -0.008014274
0.11356071 -0.0058754412 -0.023269571 0.018794144 0.018603388 0.03237466 -0.017003415 -0.040133595
0.10035302 -0.108570606 -0.044944573 -0.07961677 -0.026202662 -0.036732838 0.01725152 0.011073376
0.1003562 -0.010114856 -0.004540239 0.019115247 -0.086893976 -0.09944779 -0.0037924764 0.094294
-0.04385009 0.015557509 0.007543002 -0.018103486 0.02106441 -0.074882664 -0.043838568 -0.0056549306
-0.0841566 -0.03650393 -0.17769721 0.04524279 0.04524457 0.09017579 -0.005281992 -0.045846876
0.023933683 -0.15653928 0.05955676 0.024518797 0.079700015 -0.12753913 0.010637853 -0.07971694
-0.005814831 -0.04292853 0.09069563 0.01954633 0.06720693 0.13188767 -0.027782487 0.014894265
0.01210463 0.050951105 0.06668576 -0.029531073 -0.11724493 0.12207838 0.07911235 -0.0016161171
0.036462557 -0.014791541 -0.037031367 -0.073946916 -0.030087996 0.10015632 0.016419977 0.027679214
-0.0010482447 0.016156666 0.063609906 -0.037071154 0.12495674 -0.03596463 -0.07213634 -0.15837857
-0.026511537 -0.11815011 0.05448301 0.0046823774 -0.008685295 -0.1289695 0.096170716 -0.09952679
0.074862614 -0.055823557 0.16247368 -0.029728245 0.09128292 -0.0115901055 0.03067962 -0.03013612
-0.069724746 0.11009101 -0.0038999247 0.004990091 -0.012784564 -0.0115530025 0.01088058 -0.13078664
-0.04043946 -0.09133695 0.050822698 0.083669536 0.049465787 0.02818081 -0.09739645 0.06494228
0.04752829 0.12151235 -0.032799978 -0.17066169 0.08425648 0.12907353 -0.033193935 -0.032159988
0.034886505 0.0025755644 -0.09701975 0.07027804 -0.049855705 0.059774015 -0.056318562 -0.13363607
-0.06740645 -0.066888295 -0.086329766 -0.06697524 0.15300825 -0.018514305 0.07654313 0.049640175
0.15455867 -0.07423703 -0.084603384 -0.07779562 0.070499755 -0.07462821 -0.03145679 0.075165994
0.01933238 0.07910776 0.0751768 0.07599855 -0.005923434 -0.07863674 -0.08573544 -0.12606162
0.09044969 0.01684558 0.069028325 -0.029168658 0.06942255 -0.09249558 0.060189065 0.079205304
-0.031885155 0.03444741 0.011833352 -0.09593845 -0.16392323 0.0804632 -0.088495374 0.022617647
-0.018937806 0.007051588 0.15194991 -0.048750754 0.03061949 0.10253137 0.008360699 0.034453947
0.03692384 -0.089253955 0.03406296 0.105372556 -0.029146232 0.081015214 -0.06864888 0.115047075
-0.027130565 0.020497352 0.11148715 0.05356867 0.049276162 -0.10353916 -0.07086027 0.08820893
-0.07052867 -0.0117324265 0.00888726 0.07350925 0.094431646 0.11702087 0.12323051 0.056492146
0.038410366 0.12774703 0.08651089 0.057304543 0.049022134 -0.14701098 -0.10528867 -0.08577635
-0.0008570464 0.047692027 -0.025066305 0.06466627 0.08736654 0.063273214 0.019513981 0.0036189884
0.1165087 -0.08194356 -0.012804907 -0.013628502 0.09025805 -0.056243405 -0.008504493 -0.082830116
0.043220147 0.01633533 -0.0047962647 0.08445521 0.056211248 0.12988189 -0.15843335 -0.09145047
00000000: 4a2d b43c c934 07bc 21f9 d53c fb26 e4bd
00000010: ca62 dc3d a8b0 813d 37bf fb3c 2e8e 1ebe
00000020: 8984 46bc 8b51 89bd 7371 053d 6fd4 98bd
00000030: 5db6 61bd d1ea 61bd 5919 853d 0f5e ea3c
00000040: 5f2b c23d 9573 983c 9eb8 cd3d de25 e73d
00000050: 467e 523d 56bb 533b 6764 fcbb 4d4e 03bc
00000060: 8492 e83d c686 c0bb d49f bebc 2df6 993c
00000070: 2266 983c 4b9b 043d bf4a 8bbc 2063 24bd
00000080: e285 cd3d 445a debd cd17 38bd 1e0e a3bd
00000090: f7a6 d6bc 2c75 16bd 0f53 8d3c 1b6d 353c
000000a0: 8d87 cd3d c8b8 25bc 49c6 94bb 9497 9c3c
000000b0: 78f5 b1bd 48ab cbbd 328b 78bb 361d c13d
000000c0: 279c 33bd ece4 7e3c 492b f73b c34d 94bc
000000d0: 458f ac3c 155c 99bd 1290 33bd ff4c b9bb
000000e0: 4c5a acbd 2585 15bd 42f6 35be 8150 393d
000000f0: 5f52 393d 16ae b83d 8f14 adbb efc9 3bbd
00000100: 9210 c43c d54b 20be caf1 733d a5db c83c
00000110: c339 a33d 9e99 02be 644a 2e3c a342 a3bd
00000120: 568a bebb d4d5 2fbd a1be b93d a01f a03c
00000130: c9a3 893d 900d 073e 1998 e3bc 1307 743c
00000140: 7f52 463c 1bb2 503d 8b92 883d 26eb f1bc
00000150: 1c1e f0bd 3b04 fa3d a805 a23d e4d3 d3ba
00000160: c359 153d 3858 72bc 34ae 17bd 7b71 97bd
00000170: 1a7b f6bc c21e cd3d 3083 863c 85bf e23c
00000180: 4165 89ba fc5a 843c e945 823d ecd7 17bd
00000190: 52e9 ff3d a64f 13bd 38bc 93bd fe2d 22be
000001a0: b92e d9bc aff8 f1bd 9429 5f3d a16e 993b
000001b0: c44c 0ebc 9510 04be 27f5 c43d b4d4 cbbd
000001c0: 9251 993d 3ea7 64bd 805f 263e a688 f3bc
000001d0: 8af2 ba3d 6de4 3dbc d453 fb3c 06e0 f6bc
000001e0: d9cb 8ebd 6577 e13d e195 7fbb eb83 a33b
000001f0: 5976 51bc ce48 3dbc 7644 323c efec 05be
00000200: d9a3 25bd de0e bbbd 762b 503d ef5a ab3d
00000210: a39c 4a3d 71db e63c ca77 c7bd 7500 853d
00000220: 06ad 423d 78db f83d 4559 06bd f0c1 2ebe
00000230: a98e ac3d da2b 043e 5df6 07bd 31ba 03bd
00000240: 27e5 0e3d cdca 283b 4ab2 c6bd efed 8f3d
00000250: 7f35 4cbd 99d5 743d 4bae 66bd e5d7 08be
00000260: 650c 8abd bbfc 88bd a9cd b0bd 512a 89bd
00000270: 32ae 1c3e 50ab 97bc a5c2 9c3d 7f53 4b3d
00000280: a144 1e3e 9609 98bd 8a44 adbd 4f53 9fbd
00000290: 2d62 903d add6 98bd d6d8 00bd a1f0 993d
000002a0: f05e 9e3c 4003 a23d 4bf6 993d 21a5 9b3d
000002b0: 5e19 c2bb 4d0c a1bd 1096 afbd 4c16 01be
000002c0: b03d b93d beff 893c b95e 8d3d 1cf3 eebc
000002d0: 692d 8e3d 536e bdbd cf88 763d 6436 a23d
000002e0: 029a 02bd ba18 0d3d ade0 413c 617b c4bd
000002f0: 7edb 27be e4c9 a43d 103d b5bd a548 b93c
00000300: 7523 9bbc 0211 e73b c298 1b3e dfae 47bd
00000310: bad5 fa3c f8fb d13d 50fb 083c 951f 0d3d
00000320: 743d 173d c7ca b6bd 9a85 0b3d 91cd d73d
00000330: 14c4 eebc 4eeb a53d c997 8cbd cd9d eb3d
00000340: eb40 debc 10ea a73c 6053 e43d d26a 5b3d
00000350: cdd5 493d 570c d4bd 301f 91bd e2a6 b43d
00000360: 5671 90bd 5d39 40bc df9b 113c 058c 963d
00000370: 6165 c13d a3a8 ef3d 4760 fc3d 4f64 673d
00000380: 3054 1d3d 1ed0 023e 9f2c b13d 2bb8 6a3d
00000390: 6fcb 483d 0c8a 16be 96a1 d7bd 83ab afbd
000003a0: 69ab 60ba b758 433d da57 cdbc c06f 843d
000003b0: 3bed b23d 6395 813d c9db 9f3c 8d2c 6d3b
000003c0: 1d9c ee3d 06d2 a7bd accb 51bc 154a 5fbc
000003d0: 36d9 b83d 7c5f 66bd 6e56 0bbc d6a2 a9bd
000003e0: 9c07 313d acd1 853c fc29 9dbb daf6 ac3d
000003f0: c43d 663d c2ff 043e 5a3c 22be 624a bbbd

layer0.linear_skip_bias f4 [64]
-0.08059001 0.017431485 -0.07995273 -0.04748843 0.015203111 0.070755534 -0.119262606 -0.06266512
0.006037294 0.026348501 0.05880555 -0.08732255 -0.055686783 -0.0033270079 -0.015627885 0.0069576483
-0.022178642 -0.029203447 -0.08217522 0.13720936 0.05073366 0.100753054 -0.03386404 -0.017391365
-0.008024887 0.0050883507 0.053066883 0.035483386 0.03201815 -0.010129351 -0.0014474831 -0.10248166
0.0022891932 0.040692296 -0.016611548 0.067711145 -0.055808906 -0.04201327 0.035003114 -0.028877396
0.05324573 0.020589063 -0.005652888 -0.103261136 -0.020869203 0.0107973935 0.0721384 0.054006226
0.10331242 0.13352065 0.01327192 0.007220588 -0.13768683 0.07738174 -0.04208851 0.10374935
-0.09137232 0.037996124 -0.034228113 0.060333252 0.065535344 0.011424682 -0.07089454 0.0075177965
00000000: 600c a5bd 79cc 8e3c 42be a3bd 3a83 42bd
00000010: 7816 793c 47e8 903d f43f f4bd 9256 80bd
00000020: 7ed4 c53b d0d8 d73c 17de 703d 2ad6 b2bd
00000030: d317 64bd ee09 5abb 0d06 80bc fcfc e33b
00000040: fcaf b5bc 113c efbc 7b4b a8bd 9c80 0c3e
00000050: 19ce 4f3d 9e57 ce3d 05b5 0abd 5678 8ebc
00000060: d17a 03bc 2ebc a63b a95c 593d 0757 113d
00000070: 7725 033d 94f5 25bc 79b9 bdba e8e1 d1bd
00000080: 4a06 163b f7ac 263d f114 88bc 24ac 8a3d
00000090: e197 64bd 1b16 2cbd 6d5f 0f3d 4a90 ecbc
000000a0: 3218 5a3d 65aa a83c dd3b b9bb 937a d3bd
000000b0: e4f5 aabc 8de7 303c 4cbd 933d a235 5d3d
000000c0: 7695 d33d a3b9 083e 7872 593c af9a ec3b
000000d0: c7fd 0cbe 517a 9e3d 0065 2cbd 8a7a d43d
000000e0: 6921 bbbd d3a1 1b3d c732 0cbd 0020 773d
000000f0: 6537 863d 972e 3b3c 2831 91bd d957 f63b

layer0.linear_msg_weight f4 [64, 400]
-0.0040686987 -0.059372652 -0.0006787669 0.0069385283 -0.10393446 -0.041094363 -0.020435452 0.054961406
0.017605603 -0.030435387 0.022281803 0.062425762 0.08306127 -0.04213377 0.07093952 -0.022135157
-0.0073172115 -0.00820276 0.009840323 -0.0031661796 -0.032743074 0.017826557 0.046560388 -0.02261133
-0.048971284 -0.02959888 0.02359599 0.00032428346 -0.004492411 0.031546544 0.07074346 0.09158932
0.027142858 -0.066552535 -0.019557465 0.017485652 -0.00094624184 -0.041967224 0.0311575 -0.019277183
-0.0051398175 0.010671542 0.040324606 -0.10422819 -0.04041722 -0.031858508 -0.17560902 0.023578124
0.0039716284 0.0124512175 0.02208816 0.038600788 0.000115295705 0.0097546065 0.058734268 -0.021492053
-0.052771606 -0.03540814 -0.017052464 -0.02799255 0.008369743 0.036739614 -0.011669645 0.038174327
0.042618796 0.028208712 0.023361243 -0.031752337 0.0293422 0.009194833 0.0037993842 -0.0045075133
-0.048518512 -0.00907112 -0.03091265 0.018015439 0.046019852 0.043870907 -0.0060489364 -0.08435541
0.009475268 -0.019109799 -0.011099557 0.0034020809 -0.0047646766 0.09235372 -0.0007831715 0.031059545
-0.07551078 0.0011800943 -0.018424192 0.04431441 -0.011596312 0.024104359 -0.010410689 -0.03499327
-0.050120033 0.0035891165 0.015040508 0.090323865 0.03889932 0.03948008 0.07032099 0.02622033
0.15748304 -0.0399773 0.0020170559 -0.024532216 -0.0017559349 0.045793895 -0.048525605 -0.040790964
-0.080361895 0.07102436 0.052749265 -0.0066403784 0.04316641 0.010787125 -0.051820617 -0.0011272376
-0.088350035 0.07585508 0.017870208 -0.03951129 0.062712364 0.025500622 -0.05667296 -0.13509731
-0.005883616 -0.08116352 -0.047239892 -0.038724214 -0.06994402 0.080693804 -0.16716638 -0.009019593
-0.10812249 -0.0592089 -0.006276621 -0.071337536 -0.051759277 -0.030867513 -0.02299801 0.13942471
-0.13085665 0.09764131 0.037192427 -0.11460447 0.1320649 -0.055912063 0.03666526 0.008819597
0.10541669 -0.1839685 0.026126422 0.114029735 -0.032714542 0.101909086 -0.12554948 -0.0663375
-0.1422674 0.17586847 -0.041477066 0.13534509 -0.07655803 0.14908914 0.076022685 -0.18750352
0.10736544 0.08927784 -0.15204816 0.07081366 0.011904901 0.19912496 -0.19534865 -0.040942088
-0.027917087 -0.18076016 -0.092242874 0.08945773 -0.068844125 0.11570664 -0.049868513 -0.051561326
-0.0061866804 0.00091388816 0.07086173 -0.016993938 0.055732746 0.051162433 0.045820322 0.0068382574
0.2045914 0.116711415 -0.021122674 -0.070557944 -0.077697575 -0.050505884 -0.040437073 -0.078340486
-0.1871284 -0.07521194 -0.18510541 -0.032409526 0.030561129 -0.17895174 0.124434054 -0.08713708
0.18271877 -0.14498654 0.1996071 -0.00029993398 -0.084146254 -0.15927172 0.06159422 -0.0640833
0.02288831 -0.08869822 -0.11650057 -0.16445048 -0.045146685 0.009186982 0.20083982 -0.16003191
0.15198417 0.06432026 -0.13447444 0.06197822 0.026161289 0.14600743 0.04893295 -0.09717501
-0.12019076 0.012739202 -0.016075281 -0.037092924 -0.15610512 -0.15063088 -0.093602635 -0.022839248
0.043262582 0.17499997 0.015275925 0.18543041 -0.09095765 -0.020556377 0.14162548 0.14410786
-0.060505472 -0.06520671 -0.16461162 0.018988976 0.11381152 -0.107875824 0.040385228 -0.08238168
00000000: b852 85bb bd30 73bd 47ef 31ba 985c e33b
00000010: 97db d4bd 9052 28bd 4068 a7bc 361f 613d
00000020: a039 903c a253 f9bc 5488 b63c 28b2 7f3d
00000030: 071c aa3d 7694 2cbd bd48 913d ca54 b5bc
00000040: 38c5 efbb de64 06bc 4e39 213c ae7f 4fbb
00000050: 9a1d 06bd 0009 923c 1bb6 3e3d 653b b9bc
00000060: 1d96 48bd 5a79 f2bc 614c c13c 9704 aa39
00000070: 1335 93bb f336 013d f2e1 903d 2e93 bb3d
00000080: b35a de3c b24c 88bd fa36 a0bc 123e 8f3c
00000090: 370d 78ba d3e5 2bbd 033e ff3c 2feb 9dbc
000000a0: ea6b a8bb b1d7 2e3c 6a2b 253d 9775 d5bd
000000b0: 878c 25bd 117e 02bd dad2 33be e926 c13c
000000c0: 6f24 823b 3100 4c3c 3bf2 b43c dc1b 1e3d
000000d0: e9ca f138 c9d1 1f3c 5893 703d 1a10 b0bc
000000e0: 0a27 58bd 2008 11bd 9cb1 8bbc a250 e5bc
000000f0: 3f21 093c 477c 163d 0a32 3fbc af5c 1c3d
00000100: 0c91 2e3d f515 e73c 1460 bf3c bd0e 02bd
00000110: 0e5f f03c eda5 163c 17ff 783b c3b3 93bb
00000120: 59bb 46bd 099f 14bc 873c fdbc 1d95 933c
00000130: 507f 3c3d fbb1 333d 2836 c6bb 87c2 acbd
00000140: 283e 1b3c 278c 9cbc ebda 35bc 72f5 5e3b
00000150: 0121 9cbb f223 bd3d c04d 4dba 9670 fe3c
00000160: 65a5 9abd 65ad 9a3a 55ee 96bc 0783 353d
00000170: 75fe 3dbc 8176 c53c 9891 2abc 1a55 0fbd
00000180: aa4a 4dbd 6237 6b3b 766c 763c b8fb b83d
00000190: e554 1f3d ddb5 213d 7404 903d 04cc d63c
000001a0: 3c43 213e 3dbf 23bd 9530 043b c9f7 c8bc
000001b0: 6627 e6ba 6192 3b3d c9c2 46bd 6d14 27bd
000001c0: c794 a4bd 3875 913d 9d0f 583d 8897 d9bb
000001d0: 43cf 303d 7bbc 303c db41 54bd d1bf 93ba
000001e0: ddf0 b4bd e859 9b3d 8b64 923c 97d6 21bd
000001f0: 576f 803d aee6 d03c e821 68bd f356 0abe
00000200: 59cb c0bb 0f39 a6bd 9e7e 41bd 489d 1ebd
00000210: cf3e 8fbd cb42 a53d aa2d 2bbe eac6 13bc
00000220: 536f ddbd 0885 72bd 1dac cdbb 6a19 92bd
00000230: 8901 54bd dedd fcbc 5366 bcbc 5ac5 0e3e
00000240: 49ff 05be 2bf8 c73d 1657 183d c0b5 eabd
00000250: 053c 073e 0c04 65bd 502e 163d 1280 103c
00000260: b5e4 d73d 3d62 3cbe 1407 d63c 6c88 e93d
00000270: afff 05bd b6b5 d03d 0b90 00be f5db 87bd
00000280: 8cae 11be dd16 343e dbe3 29bd e797 0a3e
00000290: 75ca 9cbd d3aa 183e c8b1 9b3d ec00 40be
000002a0: 69e2 db3d 4dd7 b63d 83b2 1bbe c106 913d
000002b0: c60c 433c 6ae7 4b3e 7a09 48be e4b2 27bd
000002c0: 60b2 e4bc 3119 39be d5e9 bcbd 9d35 b73d
000002d0: 26fe 8cbd 9af7 ec3d ed42 4cbd f831 53bd
000002e0: a3b9 cabb ff91 6f3a f41f 913d df36 8bbc
000002f0: 0548 643d b38f 513d 17ae 3b3d 7613 e03b
00000300: 6880 513e 6506 ef3d 7509 adbc af80 90bd
00000310: e81f 9fbd 42df 4ebd 58a1 25bd fa70 a0bd
00000320: 969e 3fbe b808 9abd 468c 3dbe dabf 04bd
00000330: 555b fa3c 203f 37be 48d7 fe3d ed74 b2bd
00000340: a11a 3b3e 5a77 14be ce65 4c3e 7540 9db9
00000350: df54 acbd 2018 23be 394a 7c3d 1b3e 83bd
00000360: 4480 bb3c 6aa7 b5bd da97 eebd b565 28be
00000370: bbeb 38bd ff84 163c f4a8 4d3e 68df 23be
00000380: bda1 1b3e 57ba 833d abb3 09be e0dc 7d3d
00000390: 3350 d63c f982 153e eb6d 483d b103 c7bd
000003a0: 9326 f6bd 16b8 503c 4fb0 83bc c0ee 17bd
000003b0: 05da 1fbe fb3e 1abe bdb2 bfbd 6019 bbbc
000003c0: 1b34 313d 3133 333e e047 7a3c 78e1 3d3e
000003d0: 0148 babd d965 a8bc 4506 113e 0391 133e
000003e0: 96d4 77bd 188b 85bd f38f 28be c58e 9b3c
000003f0: 0416 e93d 00ee dcbd fb6a 253d bab7 a8bd

layer0.linear_msg_bias f4 [64]
-0.08059001 0.017431485 -0.07995273 -0.04748843 0.015203111 0.070755534 -0.119262606 -0.06266512
0.006037294 0.026348501 0.05880555 -0.08732255 -0.055686783 -0.0033270079 -0.015627885 0.0069576483
-0.022178642 -0.029203447 -0.08217522 0.13720936 0.05073366 0.100753054 -0.03386404 -0.017391365
-0.008024887 0.0050883507 0.053066883 0.035483386 0.03201815 -0.010129351 -0.0014474831 -0.10248166
0.0022891932 0.040692296 -0.016611548 0.067711145 -0.055808906 -0.04201327 0.035003114 -0.028877396
0.05324573 0.020589063 -0.005652888 -0.103261136 -0.020869203 0.0107973935 0.0721384 0.054006226
0.10331242 0.13352065 0.01327192 0.007220588 -0.13768683 0.07738174 -0.04208851 0.10374935
-0.09137232 0.037996124 -0.034228113 0.060333252 0.065535344 0.011424682 -0.07089454 0.0075177965
00000000: 600c a5bd 79cc 8e3c 42be a3bd 3a83 42bd
00000010: 7816 793c 47e8 903d f43f f4bd 9256 80bd
00000020: 7ed4 c53b d0d8 d73c 17de 703d 2ad6 b2bd
00000030: d317 64bd ee09 5abb 0d06 80bc fcfc e33b
00000040: fcaf b5bc 113c efbc 7b4b a8bd 9c80 0c3e
00000050: 19ce 4f3d 9e57 ce3d 05b5 0abd 5678 8ebc
00000060: d17a 03bc 2ebc a63b a95c 593d 0757 113d
00000070: 7725 033d 94f5 25bc 79b9 bdba e8e1 d1bd
00000080: 4a06 163b f7ac 263d f114 88bc 24ac 8a3d
00000090: e197 64bd 1b16 2cbd 6d5f 0f3d 4a90 ecbc
000000a0: 3218 5a3d 65aa a83c dd3b b9bb 937a d3bd
000000b0: e4f5 aabc 8de7 303c 4cbd 933d a235 5d3d
000000c0: 7695 d33d a3b9 083e 7872 593c af9a ec3b
000000d0: c7fd 0cbe 517a 9e3d 0065 2cbd 8a7a d43d
000000e0: 6921 bbbd d3a1 1b3d c732 0cbd 0020 773d
000000f0: 6537 863d 972e 3b3c 2831 91bd d957 f63b

layer1.linear_skip_weight f4 [64, 64]
-0.3247519 0.10573382 -0.2500102 -0.18000692 0.009032098 0.31029168 -0.06048447 -0.27820995
-0.40838027 0.0034953419 -0.04505249 -0.28017133 -0.012638765 -0.07053019 -0.04464531 0.060810972
-0.21186368 -0.10750071 -0.2636212 0.14502832 0.06363975 0.3925935 0.009002996 0.14562511
-0.13333338 0.056757107 0.38165507 0.09982171 -0.031076172 -0.2749741 -0.20235716 -0.31108436
0.14917341 0.31572095 -0.19007802 0.3133618 -0.20025352 -0.12846255 -0.08508102 -0.30801803
0.3540833 0.250357 -0.31787166 -0.4781313 -0.1779549 0.1858071 0.47981817 -0.067601226
0.33436355 0.19218108 -0.07742282 -0.008896829 -0.44047964 0.5723222 0.13800015 0.4202555
-0.18638688 0.26340106 0.0999718 0.113072895 0.16041867 -0.1339449 0.119395584 0.13879193
0.07847483 0.12527695 0.021623595 -0.018943653 0.33107367 -0.17939402 0.18440944 0.16183689
0.055573806 0.04207716 -0.055037595 0.35543025 0.11341169 0.17902882 0.13055056 -0.25326917
-0.175316 -0.043268215 0.38623658 -0.35198843 -0.29632977 -0.0047166157 0.18964493 0.082641505
0.19066986 -0.06980667 -0.2439177 0.063139044 -0.18216024 0.1856662 0.03401318 0.56747806
0.043228365 0.14117052 -0.1862249 -0.33112043 0.3949794 0.15385088 -0.023325847 3.9258714e-05
-0.24173641 0.251362 0.039173517 0.17861672 -0.08489564 -0.25719637 -0.2664125 -0.20407699
-0.1827566 -0.32630965 -0.009702551 -0.15579028 0.005997699 -0.012141131 0.058638472 -0.26186538
0.082845725 -0.27053204 0.19858533 0.039705396 -0.023298973 0.11217616 0.11861686 0.0156536
0.21153563 0.3296471 0.08564514 -0.00431793 0.13976488 0.41425306 -0.20888342 0.0124854
0.011890309 -0.4564342 0.24586393 0.1989819 0.25619507 -0.30939442 -0.30037013 0.213746
-0.087263525 0.071662165 0.411645 0.37923965 -0.18305217 0.36811584 -0.09405689 -0.18782263
-0.08557181 0.41459182 -0.12359578 -0.17176057 -0.024887372 -0.1545417 -0.1254947 -0.012798069
0.037393685 -0.114626914 0.38661593 -0.019580612 0.13994963 -0.27167 0.10550719 0.0008786559
0.17369848 0.34646785 -0.2876811 0.38401234 0.4561744 0.14992268 -0.20926651 -0.37237817
-0.05240792 -0.16423303 -0.0014199503 -0.47391203 -0.19224712 -0.1220869 -0.0043224683 -0.19121575
0.010944353 -0.17281939 0.4002145 -0.04771722 -0.36157238 -0.1578388 0.07819935 0.10156759
-0.004624815 0.014230795 0.0030502642 0.094102055 -0.077418536 0.18291833 -0.25951454 0.023772504
0.20759094 0.050569143 -0.002323421 -0.16364765 -0.1085917 0.008941374 -0.23965527 -0.17320059
0.006438599 -0.12990466 -0.013783299 0.03746186 0.12498758 -0.3715014 -0.16954188 -0.12887512
-0.27721667 -0.19761686 0.04978189 -0.05640247 0.1241484 0.029390555 -0.18193045 -0.062372077
-0.24192992 0.21235926 -0.09188719 0.2598126 0.02074718 -0.18586195 -0.023728712 7.489753e-05
-0.25603157 0.0019861504 0.050856948 -0.19734912 -0.37548116 0.1800928 0.2878647 -0.028603617
0.20737848 -0.074024916 -0.08494497 0.08484244 0.15758394 0.16211212 -0.035629865 0.043918263
-0.07189603 0.042053327 -0.09000002 0.054273766 -0.09193394 0.31378907 -0.098216124 -0.1420871
00000000: e245 a6be f98a d83d 5601 80be bc53 38be
00000010: 5dfb 133c 8dde 9e3e 90be 77bd 8971 8ebe
00000020: 3817 d1be 1b12 653b f688 38bd 9e72 8fbe
00000030: d312 4fbc 2272 90bd 00de 36bd ed14 793d
00000040: cbf2 58be 5529 dcbd 5cf9 86be 4e82 143e
00000050: 8f55 823d 0402 c93e 4d81 133c c01e 153e
00000060: 8c88 08be 247a 683d 4b68 c33e 536f cc3d
00000070: 7593 febc 68c9 8cbe b736 4fbe 7346 9fbe
00000080: eac0 183e 2da6 a13e d0a3 42be f570 a03e
00000090: 420f 4dbe b08b 03be f53e aebd 8ab4 9dbe
000000a0: 684a b53e cb2e 803e 13c0 a2be a0cd f4be
000000b0: cf39 36be 3744 3e3e baaa f53e 8372 8abd
000000c0: b331 ab3e 1ecb 443e db8f 9ebd 01c4 11bc
000000d0: 8c86 e1be b583 123f e94f 0d3e bb2b d73e
000000e0: 34dc 3ebe 81dc 863e 04be cc3d c392 e73d
000000f0: cb44 243e da28 09be ac85 f43d 791f 0e3e
00000100: 69b7 a03d 9a48 003e f723 b13c b82f 9bbc
00000110: 7d82 a93e 11b3 37be d4d5 3c3e 92b8 253e
00000120: 5ca1 633d 1a59 2c3d 1a6f 61bd f4fa b53e
00000130: 6344 e83d 5553 373e 0caf 053e 7fac 81be
00000140: 0a86 33be 033a 31bd cdc0 c53e d437 b4be
00000150: 89b8 97be d78d 9abb 4832 423e f33f a93d
00000160: f63e 433e cdf6 8ebd 90c5 79be 0b4f 813d
00000170: 3788 3abe 481f 3e3e 6751 0b3d 3e46 113f
00000180: 3a10 313d 018f 103e bdb1 3ebe 9e88 a9be
00000190: bd3a ca3e 168b 1d3e d915 bfbc b9a9 2438
000001a0: c089 77be 85b2 803e 6974 203d 4de7 363e
000001b0: c4dd adbd 3eaf 83be 3867 88be 8ff9 50be
000001c0: 8c24 3bbe 0f12 a7be 73f7 1ebc 7d87 1fbe
000001d0: 5988 c43b 98eb 46bc e52e 703d 3813 86be
000001e0: 05ab a93d 2d83 8abe f459 4b3e 20a2 223d
000001f0: 7ddd bebc 9dbc e53d 65ed f23d fb3b 803c
00000200: cc9c 583e 81c7 a83e b866 af3d 6c7d 8dbb
00000210: 861e 0f3e fa18 d43e 89e5 55be 908f 4c3c
00000220: 92cf 423c beb1 e9be c1c3 7b3e e9c1 4b3e
00000230: 002c 833e f268 9ebe 1dca 99be 3be0 5a3e
00000240: 38b7 b2bd 9dc3 923d 22c3 d23e b32b c23e
00000250: 0772 3bbe ae79 bc3e e6a0 c0bd 9354 40be
00000260: 4640 afbd 6145 d43e c91f fdbd 01e2 2fbe
00000270: 9ae0 cbbc 2e40 1ebe af81 00be feae 51bc
00000280: 1f2a 193d 84c1 eabd 86f2 c53e 8567 a0bc
00000290: f54e 0f3e 5518 8bbe 2714 d83d 9955 663a
000002a0: 04de 313e 3c64 b13e f04a 93be 449d c43e
000002b0: b18f e93e 5585 193e f649 56be 5aa8 bebe
000002c0: b0a9 56bd b42c 28be a01d baba 99a4 f2be
000002d0: 6edc 44be b208 fabd 7ea3 8dbb 10ce 43be
000002e0: f24f 333c 91f7 30be eae8 cc3e 2273 43bd
000002f0: 0420 b9be 7fa0 21be fb26 a03d ab02 d03d
00000300: c38b 97bb 4828 693c f1e6 473b 94b8 c03d
00000310: 9c8d 9ebd f14e 3b3e 17df 84be 8ebe c23c
00000320: b892 543e 9721 4f3d 8944 18bb 4093 27be
00000330: 5365 debd d77e 123c 3168 75be 7f5b 31be
00000340: e2fa d23b ba05 05be 59d3 61bc 9b71 193d
00000350: 7df9 ff3d 6e35 bebe 639c 2dbe d7f7 03be
00000360: 58ef 8dbe 135c 4abe 18e8 4b3d 4706 67bd
00000370: 8441 fe3d 76c4 f03c fa4b 3abe dd79 7fbd
00000380: 7abc 77be b574 593e 5a2f bcbd 2806 853e
00000390: fdf5 a93c 9852 3ebe b762 c2bc 4e12 9d38
000003a0: 9216 83be 132a 023b 604f 503d e315 4abe
000003b0: 113f c0be 3f6a 383e 0163 933e 2252 eabc
000003c0: 065b 543e 609a 97bd a1f7 adbd e0c1 ad3d
000003d0: af5d 213e b800 263e 9ff0 11bd a3e3 333d
000003e0: 3a3e 93bd 1c40 2c3d ee51 b8bd 2b4e 5e3d
000003f0: dd47 bcbd f6a8 a03e 8925 c9bd 487f 11be

layer1.linear_skip_bias f4 [64]
0.04680139 -0.028343776 -0.0030703002 -0.006239801 -0.020157013 0.028631145 -0.008238878 -0.045640074
0.009839811 -0.08666636 -0.046684224 0.01612824 0.016134894 -0.05720482 0.020113936 -0.009152273
-0.033998057 -0.031202186 -0.031627975 -0.02542503 -0.06646222 -0.0039046092 -0.034457665 0.0043813535
-0.012024796 -0.0019223301 -0.067863874 -0.008222647 -0.023546299 -0.055404805 0.014726445 -0.03996427
0.039010573 0.01926234 0.04492464 0.03501077 0.03107022 0.036804974 -0.0049748104 0.0012851597
-0.035907306 -0.01451763 -0.049261272 0.05213055 -0.006001232 0.000677322 -0.060370807 -0.008885086
-0.007872534 -0.016059548 0.036236666 -0.009212994 0.049446892 0.0066418652 -0.009572753 0.01820924
0.0086005535 0.026634427 -0.024647497 0.01130135 -0.022833053 0.02413126 0.029285848 -0.00631433
00000000: d0b2 3f3d 3531 e8bc 1737 49bb 3f77 ccbb
00000010: 5220 a5bc dd8b ea3c 5cfc 06bc 16f1 3abd
00000020: 2937 213c 227e b1bd f537 3fbd 5f1f 843c
00000030: 532d 843c 9a4f 6abd fbc5 a43c 6af3 15bc
00000040: 8c41 0bbd ba9b ffbc 568c 01bd 2748 d0bc
00000050: 581d 88bd 79e4 7fbb 7b23 0dbd 7591 8f3b
00000060: a603 45bc b2f6 fbba 37fc 8abd 48b8 06bc
00000070: 2be4 c0bc 26f0 62bd 3047 713c 93b1 23bd
00000080: 8dc9 1f3d 0ecc 9d3c e602 383d 7467 0f3d
00000090: f986 fe3c d0c0 163d bc03 a3bb ce72 a83a
000000a0: 8a13 13bd 5bdb 6dbc 30c6 49bd d886 553d
000000b0: fca5 c4bb 4f8e 313a 6147 77bd c092 11bc
000000c0: cdfb 00bc 508f 83bc e66c 143d 19f2 16bc
000000d0: d388 4a3d 01a4 d93b 09d7 1cbc 8b2b 953c
000000e0: 56e9 0c3c 7130 da3c 8ce9 c9bc 4c29 393c
000000f0: 620c bbbc ecae c53c e0e8 ef3c 70e8 cebb

layer1.linear_msg_weight f4 [64, 64]
0.045619458 -0.24157912 0.3345292 -0.039830845 0.090568475 -0.2005823 0.49384204 0.046476565
-0.13045882 0.10374789 0.021343332 -0.44463265 0.04548002 0.1822281 -0.10592333 0.21413101
0.48021528 -0.15204541 -0.3934053 -0.33863568 0.12486837 0.096313536 -0.5023973 -0.08978981
0.10737987 0.019221947 0.03854891 -0.07556336 -0.08754705 0.028007451 -0.061030935 -0.52808243
0.022447858 0.031594425 0.2298628 0.21107627 -0.168867 0.13076453 0.273932 -0.08409166
-0.13606392 -0.1826963 -0.1968914 -0.038237225 0.13719378 0.31743312 0.025309127 0.13465993
-0.6538311 -0.2882282 -0.4748091 -0.14236034 0.04461265 0.24903409 0.2046458 0.22933374
0.09445331 -0.05569764 0.49236038 -0.08902701 0.11557855 0.26898065 0.38522714 -0.25904974
0.24103172 -0.21380125 -0.5749159 0.16219886 0.07239066 -0.033961702 -0.07403696 -0.119332835
0.050694373 -0.12633365 0.036232997 -0.076497756 -0.18938833 -0.08993958 0.29740554 -0.21155891
-0.32372165 -0.13974455 -0.055667832 0.42747024 0.02254254 0.33617455 0.24710934 -0.058455985
-0.06717546 0.06192798 0.07185102 0.2346147 -0.0763503 0.26369345 0.108735174 0.28981793
0.09219022 -0.042249177 0.14665243 -0.23806427 0.2393087 -0.05250448 -0.08348002 -0.1566127
-0.07577962 -0.06567377 0.094632655 0.2203108 0.20496961 -0.11913937 -0.1388084 0.17830594
0.09594396 0.46506417 0.29000536 0.029258706 -0.11503217 0.029856248 0.14736027 -0.25653183
0.01577144 0.13307208 -0.0025228686 0.17966281 0.22337319 -0.39044702 -0.02174865 0.23840387
0.047993097 0.65817505 0.72482747 0.23810868 -0.14353532 0.31879193 0.037059925 0.54960096
0.0041773566 -0.6085263 0.034846656 0.11918337 0.37196946 -0.31347418 -0.25256452 0.23106183
-0.096523866 -0.24607894 0.41423345 -0.40186635 0.049743854 0.27490908 0.10885795 0.12854022
-0.32118443 0.37573418 -0.21764253 -0.20806925 -0.11062911 -0.118391626 -0.49843913 0.11585847
0.4409307 0.04344583 -0.029990971 0.01405335 0.27423045 0.06757873 0.09870986 -0.06598775
0.026425175 0.24765678 -0.6025336 0.44238237 0.47333974 0.21919198 -0.18584034 -0.68983525
-0.71104795 -0.7266757 -0.033886053 -0.17155834 -0.19303453 -0.33078846 0.3707689 -0.40922537
0.3402681 -0.5283975 0.030870363 -0.11655946 0.014211899 -0.1634513 0.22846337 0.12532306
-0.16450098 -0.14503549 -0.19356753 0.007839927 -0.20334056 0.029426664 -0.13093491 -0.005682302
0.32361302 0.2763714 0.10354935 -0.14312723 -0.089147314 0.107645944 -0.16211963 -0.1895548
0.15537156 0.060780235 -0.03237458 0.09190959 0.057202607 -0.39411062 -0.0018756819 0.12343919
-0.10006119 -0.06632742 0.291702 0.122004285 0.19027504 0.25419307 -0.011131239 -0.08585077
-0.33523345 -0.006987054 -0.22409867 0.28360835 0.010521533 -0.0914163 0.029950824 0.29277742
-0.026612494 0.17531328 0.4091585 0.106207 -0.40287068 0.043688215 0.13721 0.31090033
0.36718407 0.123987466 0.0693143 -0.32425824 0.13387932 0.4704425 -0.11100746 0.20869432
-0.17360143 0.1330405 -0.21753664 0.108233325 -0.0055275764 0.15564723 -0.047989264 -0.111221306
00000000: 78db 3a3d 8460 77be 6947 ab3e ab25 23bd
00000010: f77b b93d 7265 4dbe ddd8 fc3e 365e 3e3d
00000020: ff96 05be c679 d43d 36d8 ae3c e4a6 e3be
00000030: 4249 3a3d 019a 3a3e 55ee d8bd 2945 5b3e
00000040: c7de f53e cbb1 1bbe 6b6c c9be a861 adbe
00000050: fdba ff3d 0840 c53d 1c9d 00bf b8e3 b7bd
00000060: fae9 db3d 5877 9d3c 76e5 1d3d f6c0 9abd
00000070: de4b b3bd e26f e53c 93fb 79bd 6930 07bf
00000080: 92e4 b73c 2869 013d 2761 6b3e 6124 583e
00000090: 79eb 2cbe 23e7 053e d140 8c3e 4038 acbd
000000a0: 5754 0bbe bd14 3bbe e69d 49be a39e 1cbd
000000b0: 877c 0c3e 9886 a23e 1655 cf3c 4be4 093e
000000c0: 7a61 27bf a692 93be 2e1a f3be e9c6 11be
000000d0: c1bb 363d cb02 7f3e ab8e 513e 77d6 6a3e
000000e0: bd70 c13d 3523 64bd a916 fc3e cb53 b6bd
000000f0: 72b4 ec3d d5b7 893e 7e3c c53e 2ba2 84be
00000100: 05d1 763e b7ee 5abe b02d 13bf 7517 263e
00000110: 8e41 943d 6d1b 0bbd b1a0 97bd c664 f4bd
00000120: e7a4 4f3d 9c5d 01be 0d69 143d dbaa 9cbd
00000130: 04ef 41be 3e32 b8bd 8a45 983e e6a2 58be
00000140: d8be a5be 3219 0fbe f403 64bd 61dd da3e
00000150: 22ab b83c 121f ac3e 3b0a 7d3e 8b6f 6fbd
00000160: 4a93 89bd 32a8 7d3d a126 933d d63e 703e
00000170: 8c5d 9cbd d402 873e 8cb0 de3d 0463 943e
00000180: 3ace bc3d 790d 2dbd 0e2c 163e 1fc7 73be
00000190: 570d 753e f00e 57bd 93f7 aabd 145f 20be
000001a0: 5832 9bbd f87f 86bd c4ce c13d 2899 613e
000001b0: 8ee3 513e 58ff f3bd ca23 0ebe d595 363e
000001c0: 447e c43d e41c ee3e 957b 943e f4af ef3c
000001d0: fd95 ebbd 1795 f43c 9ce5 163e 2458 83be
000001e0: 1b33 813c 0c44 083e b656 25bb 87f9 373e
000001f0: f1bb 643e ace8 c7be 3a2a b2bc 2520 743e
00000200: 6994 443d 297e 283f 4b8e 393f c3d2 733e
00000210: ecfa 12be b238 a33e 26cc 173d a6b2 0c3f
00000220: 35e2 883b 61c8 1bbf 5ebb 0e3d 6916 f43d
00000230: c872 be3e b07f a0be 2350 81be 799b 6c3e
00000240: 4eae c5bd 1efc 7bbe 6816 d43e 6dc1 cdbe
00000250: 36c0 4b3d e2c0 8c3e ebf0 de3d 0ca0 033e
00000260: 4972 a4be 3b60 c03e afdd 5ebe 1b10 55be
00000270: 8491 e2bd 4f77 f2bd 6a33 ffbe 3547 ed3d
00000280: abc1 e13e 41f4 313d a0af f5bc 0640 663c
00000290: ef67 8c3e b866 8a3d 6528 ca3d 9624 87bd
000002a0: 9c79 d83c bd99 7d3e a43f 1abf f17f e23e
000002b0: 9659 f23e dd73 603e ee4c 3ebe 0b99 30bf
000002c0: 3d07 36bf 6b07 3abf 1acc 0abd fdac 2fbe
000002d0: d8aa 45be 1b5d a9be 6cd5 bd3e fd85 d1be
000002e0: 9f37 ae3e 0f45 07bf d8e3 fc3c bab6 eebd
000002f0: 06d9 683c c75f 27be 4df2 693e b054 003e
00000300: f272 28be 2f84 14be 9136 46be 0a73 003c
00000310: 8238 50be 3010 f13c cd13 06be 9b32 babb
00000320: 9bb0 a53e 8d80 8d3e ae11 d43d f28f 12be
00000330: de92 b6bd 7a75 dc3d b002 26be a71a 42be
00000340: b919 1f3e b2f4 783d 359b 04bd 183b bc3d
00000350: 484d 6a3d dec8 c9be 71d9 f5ba b0cd fc3d
00000360: e2ec ccbd acd6 87bd f759 953e 62dd f93d
00000370: 76d7 423e 9825 823e cd5f 36bc 87d2 afbd
00000380: b8a3 abbe a8f3 e4bb 1f7a 65be 1d35 913e
00000390: 8262 2c3c 7838 bbbd 6e5b f53c ece6 953e
000003a0: 7202 dabc 5385 333e 397d d13e 0e83 d93d
000003b0: 1145 cebe 6af2 323d c780 0c3e 542e 9f3e
000003c0: 8dff bb3e 24ed fd3d a8f4 8d3d 2d05 a6be
000003d0: a917 093e d7dd f03e e157 e3bd f7b3 553e
000003e0: 93c4 31be c53b 083e edc1 5ebe 6fa9 dd3d
000003f0: ac20 b5bb fd61 1f3e 6490 44bd ffc7 e3bd

layer1.linear_msg_bias f4 [64]
0.04680139 -0.028343776 -0.0030703002 -0.006239801 -0.020157013 0.028631145 -0.008238878 -0.045640074
0.009839811 -0.08666636 -0.046684224 0.01612824 0.016134894 -0.05720482 0.020113936 -0.009152273
-0.033998057 -0.031202186 -0.031627975 -0.02542503 -0.06646222 -0.0039046092 -0.034457665 0.0043813535
-0.012024796 -0.0019223301 -0.067863874 -0.008222647 -0.023546299 -0.055404805 0.014726445 -0.03996427
0.039010573 0.01926234 0.04492464 0.03501077 0.03107022 0.036804974 -0.0049748104 0.0012851597
-0.035907306 -0.01451763 -0.049261272 0.05213055 -0.006001232 0.000677322 -0.060370807 -0.008885086
-0.007872534 -0.016059548 0.036236666 -0.009212994 0.049446892 0.0066418652 -0.009572753 0.01820924
0.0086005535 0.026634427 -0.024647497 0.01130135 -0.022833053 0.02413126 0.029285848 -0.00631433
00000000: d0b2 3f3d 3531 e8bc 1737 49bb 3f77 ccbb
00000010: 5220 a5bc dd8b ea3c 5cfc 06bc 16f1 3abd
00000020: 2937 213c 227e b1bd f537 3fbd 5f1f 843c
00000030: 532d 843c 9a4f 6abd fbc5 a43c 6af3 15bc
00000040: 8c41 0bbd ba9b ffbc 568c 01bd 2748 d0bc
00000050: 581d 88bd 79e4 7fbb 7b23 0dbd 7591 8f3b
00000060: a603 45bc b2f6 fbba 37fc 8abd 48b8 06bc
00000070: 2be4 c0bc 26f0 62bd 3047 713c 93b1 23bd
00000080: 8dc9 1f3d 0ecc 9d3c e602 383d 7467 0f3d
00000090: f986 fe3c d0c0 163d bc03 a3bb ce72 a83a
000000a0: 8a13 13bd 5bdb 6dbc 30c6 49bd d886 553d
000000b0: fca5 c4bb 4f8e 313a 6147 77bd c092 11bc
000000c0: cdfb 00bc 508f 83bc e66c 143d 19f2 16bc
000000d0: d388 4a3d 01a4 d93b 09d7 1cbc 8b2b 953c
000000e0: 56e9 0c3c 7130 da3c 8ce9 c9bc 4c29 393c
000000f0: 620c bbbc ecae c53c e0e8 ef3c 70e8 cebb
